…
train_classes:
  desc: null
  value:
    golf: '2'
    shoot_ball: '9'
    ride_bike: '7'
    walk: '11'
    kick_ball: '3'
    climb: '0'
    shoot_bow: '10'
    pushup: '6'
    punch: '5'
    fencing: '1'
    ride_horse: '8'
    pullup: '4'
test_classes:
  desc: null
  value:
    golf: '2'
    shoot_ball: '9'
    ride_bike: '7'
    walk: '11'
    kick_ball: '3'
    climb: '0'
    shoot_bow: '10'
    pushup: '6'
    punch: '5'
    fencing: '1'
    ride_horse: '8'
    pullup: '4'
num_classes:
  desc: null
  value: 12
model:
  desc: null
  value: "CEVTModel(\n  (feature_extractor): Sequential(\n    (0): Conv2d(3, 64, kernel_size=(7,\
    \ 7), stride=(2, 2), padding=(3, 3), bias=False)\n    (1): BatchNorm2d(64, eps=1e-05,\
    \ momentum=0.1, affine=True, track_running_stats=True)\n    (2): ReLU(inplace=True)\n\
    \    (3): MaxPool2d(kernel_size=3, stride=2, padding=1, dilation=1, ceil_mode=False)\n\
    \    (4): Sequential(\n      (0): BasicBlock(\n        (conv1): Conv2d(64, 64,\
    \ kernel_size=(3, 3), stride=(1, 1), padding=(1, 1), bias=False)\n        (bn1):\
    \ BatchNorm2d(64, eps=1e-05, momentum=0.1, affine=True, track_running_stats=True)\n\
    \        (relu): ReLU(inplace=True)\n        (conv2): Conv2d(64, 64, kernel_size=(3,\
    \ 3), stride=(1, 1), padding=(1, 1), bias=False)\n        (bn2): BatchNorm2d(64,\
    \ eps=1e-05, momentum=0.1, affine=True, track_running_stats=True)\n      )\n \
    \     (1): BasicBlock(\n        (conv1): Conv2d(64, 64, kernel_size=(3, 3), stride=(1,\
    \ 1), padding=(1, 1), bias=False)\n        (bn1): BatchNorm2d(64, eps=1e-05, momentum=0.1,\
    \ affine=True, track_running_stats=True)\n        (relu): ReLU(inplace=True)\n\
    \        (conv2): Conv2d(64, 64, kernel_size=(3, 3), stride=(1, 1), padding=(1,\
    \ 1), bias=False)\n        (bn2): BatchNorm2d(64, eps=1e-05, momentum=0.1, affine=True,\
    \ track_running_stats=True)\n      )\n    )\n    (5): Sequential(\n      (0):\
    \ BasicBlock(\n        (conv1): Conv2d(64, 128, kernel_size=(3, 3), stride=(2,\
    \ 2), padding=(1, 1), bias=False)\n        (bn1): BatchNorm2d(128, eps=1e-05,\
    \ momentum=0.1, affine=True, track_running_stats=True)\n        (relu): ReLU(inplace=True)\n\
    \        (conv2): Conv2d(128, 128, kernel_size=(3, 3), stride=(1, 1), padding=(1,\
    \ 1), bias=False)\n        (bn2): BatchNorm2d(128, eps=1e-05, momentum=0.1, affine=True,\
    \ track_running_stats=True)\n        (downsample): Sequential(\n          (0):\
    \ Conv2d(64, 128, kernel_size=(1, 1), stride=(2, 2), bias=False)\n          (1):\
    \ BatchNorm2d(128, eps=1e-05, momentum=0.1, affine=True, track_running_stats=True)\n\
    \        )\n      )\n      (1): BasicBlock(\n        (conv1): Conv2d(128, 128,\
    \ kernel_size=(3, 3), stride=(1, 1), padding=(1, 1), bias=False)\n        (bn1):\
    \ BatchNorm2d(128, eps=1e-05, momentum=0.1, affine=True, track_running_stats=True)\n\
    \        (relu): ReLU(inplace=True)\n        (conv2): Conv2d(128, 128, kernel_size=(3,\
    \ 3), stride=(1, 1), padding=(1, 1), bias=False)\n        (bn2): BatchNorm2d(128,\
    \ eps=1e-05, momentum=0.1, affine=True, track_running_stats=True)\n      )\n \
    \   )\n    (6): Sequential(\n      (0): BasicBlock(\n        (conv1): Conv2d(128,\
    \ 256, kernel_size=(3, 3), stride=(2, 2), padding=(1, 1), bias=False)\n      \
    \  (bn1): BatchNorm2d(256, eps=1e-05, momentum=0.1, affine=True, track_running_stats=True)\n\
    \        (relu): ReLU(inplace=True)\n        (conv2): Conv2d(256, 256, kernel_size=(3,\
    \ 3), stride=(1, 1), padding=(1, 1), bias=False)\n        (bn2): BatchNorm2d(256,\
    \ eps=1e-05, momentum=0.1, affine=True, track_running_stats=True)\n        (downsample):\
    \ Sequential(\n          (0): Conv2d(128, 256, kernel_size=(1, 1), stride=(2,\
    \ 2), bias=False)\n          (1): BatchNorm2d(256, eps=1e-05, momentum=0.1, affine=True,\
    \ track_running_stats=True)\n        )\n      )\n      (1): BasicBlock(\n    \
    \    (conv1): Conv2d(256, 256, kernel_size=(3, 3), stride=(1, 1), padding=(1,\
    \ 1), bias=False)\n        (bn1): BatchNorm2d(256, eps=1e-05, momentum=0.1, affine=True,\
    \ track_running_stats=True)\n        (relu): ReLU(inplace=True)\n        (conv2):\
    \ Conv2d(256, 256, kernel_size=(3, 3), stride=(1, 1), padding=(1, 1), bias=False)\n\
    \        (bn2): BatchNorm2d(256, eps=1e-05, momentum=0.1, affine=True, track_running_stats=True)\n\
    \      )\n    )\n    (7): Sequential(\n      (0): BasicBlock(\n        (conv1):\
    \ Conv2d(256, 512, kernel_size=(3, 3), stride=(2, 2), padding=(1, 1), bias=False)\n\
    \        (bn1): BatchNorm2d(512, eps=1e-05, momentum=0.1, affine=True, track_running_stats=True)\n\
    \        (relu): ReLU(inplace=True)\n        (conv2): Conv2d(512, 512, kernel_size=(3,\
    \ 3), stride=(1, 1), padding=(1, 1), bias=False)\n        (bn2): BatchNorm2d(512,\
    \ eps=1e-05, momentum=0.1, affine=True, track_running_stats=True)\n        (downsample):\
    \ Sequential(\n          (0): Conv2d(256, 512, kernel_size=(1, 1), stride=(2,\
    \ 2), bias=False)\n          (1): BatchNorm2d(512, eps=1e-05, momentum=0.1, affine=True,\
    \ track_running_stats=True)\n        )\n      )\n      (1): BasicBlock(\n    \
    \    (conv1): Conv2d(512, 512, kernel_size=(3, 3), stride=(1, 1), padding=(1,\
    \ 1), bias=False)\n        (bn1): BatchNorm2d(512, eps=1e-05, momentum=0.1, affine=True,\
    \ track_running_stats=True)\n        (relu): ReLU(inplace=True)\n        (conv2):\
    \ Conv2d(512, 512, kernel_size=(3, 3), stride=(1, 1), padding=(1, 1), bias=False)\n\
    \        (bn2): BatchNorm2d(512, eps=1e-05, momentum=0.1, affine=True, track_running_stats=True)\n\
    \      )\n    )\n    (8): AdaptiveAvgPool2d(output_size=(1, 1))\n  )\n  (classifier):\
    \ Linear(in_features=512, out_features=12, bias=True)\n)"
optimizer:
  desc: null
  value: "SGD (\nParameter Group 0\n    dampening: 0\n    differentiable: False\n\
    \    foreach: None\n    lr: 0.001\n    maximize: False\n    momentum: 0.9\n  \
…
